source/models/model.pth (torch_old, 397007 bytes, 24 tensors)

weight_ih_l0 f4 [256, 7]
000000 7d 0e 8d bd a2 52 33 3c b4 3f 6e 3e fe 6a 82 3e
       -0.06887529 0.010944994 0.23266488 0.25472254
000010 29 c4 62 3e fd 05 86 3d 2a 96 32 bd b8 d5 91 3e
       0.22145142 0.06544111 -0.04360024 0.28483367
000020 96 84 0b bf 4f 1e a3 be 15 33 44 3e 82 8f 95 3e
       -0.54499185 -0.3185906 0.19160111 0.2921105
000030 a3 9a e6 bd ee 28 96 be d0 b1 25 3d 45 70 d9 be
       -0.11259963 -0.29328102 0.04045278 -0.42468467
000040 fe 89 5f be 72 a1 a9 be 1a b0 12 3e 38 bf 08 be
       -0.21829984 -0.33130985 0.1432499 -0.13354194
000050 f4 cf e9 3d 7a b3 ee 3e 43 5f 45 be 62 d3 b6 3e
       0.11416617 0.46621305 -0.1927462 0.35708147
000060 e3 c9 e3 3d d7 29 02 bf fa cc 2b be c5 e2 ba bc
       0.11122491 -0.5084509 -0.16777411 -0.02281321
000070 a2 94 97 3d db 25 19 be bf 41 15 be 31 aa 80 bd
       0.07401396 -0.14955847 -0.14575861 -0.062824614
000080 29 7d 10 3e 18 78 a5 bd 14 da 51 be 87 93 1b 3f
       0.14110245 -0.08079547 -0.20493346 0.60771984
000090 e1 9a 28 bf e9 05 e0 3d ad c2 21 3e 31 b0 4c be
       -0.65861326 0.10938627 0.15796919 -0.19989087
0000a0 d3 aa 1a be d2 31 be 3d b2 63 47 3e 22 21 cc be
       -0.15104227 0.09286846 0.19471624 -0.39869028
0000b0 7c 83 97 be 51 ac 7b be 58 79 83 3e a1 da 0b 3d
       -0.29592502 -0.24577452 0.25678515 0.034144048
0000c0 74 62 08 3c bb 1e c6 be ce 55 20 3e 05 77 8e bd
       0.008324254 -0.3869532 0.15657732 -0.06956295
0000d0 f1 3b 02 3e 24 f2 32 3e 67 d4 bb bd 7f d8 88 be
       0.12718178 0.17475182 -0.09171372 -0.26727673
0000e0 ad 28 8b 3e c7 54 0a bf 87 e2 9e be 4c d7 ef 3d
       0.2717947 -0.5403561 -0.31032202 0.117109865
0000f0 95 9d 9c 3e 63 4c 4a bb b9 72 5b be 8f df 48 3d
       0.30588976 -0.0030868284 -0.21430482 0.049041327
000100 bd 9a 9c bd e7 65 64 be e6 e6 2f 3e 9d c9 75 3e
       -0.076467015 -0.22304498 0.17177925 0.2400269
000110 13 4b af bd be f6 b3 be d1 3b 74 be cb a6 27 be
       -0.08559241 -0.35149187 -0.23850943 -0.1637222
000120 5f 64 55 bd 38 5b a0 bd 00 49 ea bb 72 6f a8 be
       -0.052097674 -0.078298986 -0.0071498156 -0.32897526
000130 ab 9b 62 3d 27 3f 78 3e 13 05 11 bf 77 3f fe 3c
       0.055324238 0.2424284 -0.5664837 0.031036122
000140 1f 95 3e be 7d 26 4f 3d 3f 4b 15 3e d6 55 47 3e
       -0.18611573 0.050573815 0.14579485 0.19466338
000150 2e ff 82 bd ae 40 13 bf 37 87 99 be 38 36 25 bf
       -0.06396328 -0.5752057 -0.29985973 -0.64535856
000160 24 0c 25 3e 37 c2 b6 bc 43 b2 1d be fa fd 20 3e
       0.16117913 -0.022309406 -0.15400033 0.15721884
000170 30 81 94 3d 0f f8 d5 3d 7e fb 51 3d a5 5a 77 bc
       0.07251203 0.10447704 0.051265232 -0.015097295
000180 38 82 1b be 46 ab 2d 3c e7 f6 e1 bc d5 54 c8 be
       -0.15186393 0.010599917 -0.027583553 -0.39127222
000190 a5 5e e9 3d 49 a7 14 3e a8 0c 90 3e 39 b2 30 3e
       0.11395005 0.14516939 0.28134656 0.17255487
0001a0 22 e4 3c bc 05 d3 98 be 89 b5 af bb 3f 5e 92 3d
       -0.0115290005 -0.29848495 -0.005362217 0.07146882
0001b0 1a fe 34 3e 3e 95 4d 3e 03 59 20 bd 55 40 f4 bc
       0.17675057 0.20076463 -0.03914739 -0.029815832
0001c0 8a 61 50 be e5 93 50 3e 7a 5d aa bd 23 d8 31 be
       -0.20349708 0.20368917 -0.083186105 -0.17367606
0001d0 33 c2 8d 3c 00 c5 6c be 80 51 83 3d 8f 48 f2 3d
       0.017304515 -0.23122025 0.06412029 0.11830246
0001e0 dc 2e 15 be bb 76 20 3e 37 1c 8d be c9 8b f0 bd
       -0.14568657 0.15670292 -0.2756059 -0.11745412
0001f0 9c 57 1b be 32 db 84 3e 21 b6 5c bd 13 69 fd bd
       -0.15170139 0.25948483 -0.05388463 -0.12373557
000200 ff b4 13 be ce 39 bc bd 16 87 c6 3e 88 5a 2a 3e
       -0.14424513 -0.09190713 0.38774937 0.16636097
000210 da b5 5a 3d 46 98 e0 3e 36 6f a4 be 81 30 4e 3e
       0.053396083 0.43866175 -0.32116097 0.2013569
000220 01 7b d0 3e 09 d2 33 bd 98 36 23 be 12 c2 78 be
       0.40718845 -0.043901477 -0.15938795 -0.24292782
000230 61 f6 6f 3e 18 00 9c be 44 b5 14 3d c2 af 56 be
       0.2343383 -0.30468822 0.03630568 -0.20965484
000240 92 5f 66 3d 15 b1 50 3d 62 fd 0d be 4c 3e 18 bd
       0.056243487 0.05095013 -0.13866189 -0.037168786
000250 5d 54 b4 3d a3 e7 5f 3a 64 a7 8b bd 20 c5 0e 3e
       0.088051535 0.00085412915 -0.068190366 0.13942385
000260 ca fb ef 3d c7 d9 e3 bd c9 61 8d 3c c5 29 fb be
       0.11717947 -0.11125522 0.017258542 -0.49055305
000270 b6 1a 41 be a0 5d 48 3d cc e7 9d 3e 87 93 44 be
       -0.18857846 0.048917413 0.3084091 -0.19196902
000280 d2 50 95 be c4 34 dd bd a2 40 82 be 41 c8 9c 3e
       -0.29163224 -0.1080108 -0.25439936 0.30621532
000290 df 68 5e 3e ac e0 d5 3d c1 8c 0c 3e c1 68 58 3e
       0.21719693 0.104432434 0.13725568 0.2113371
0002a0 e7 eb e1 bd c9 f0 39 be 75 80 59 be 49 65 8b 3e
       -0.11031323 -0.18158258 -0.21240409 0.27225712
0002b0 a2 d1 40 3d 36 eb a9 be 0f 84 b3 be 60 40 42 be
       0.04707492 -0.33187264 -0.3506169 -0.1896987
0002c0 50 16 07 be 80 3c bf 3d dd c0 b0 bd 5f 8a 78 bd
       -0.13192105 0.09337711 -0.08630536 -0.060678836
0002d0 d8 c8 43 be bb 40 94 3d fd 4c 45 be b9 27 0f bf
       -0.19119585 0.07238909 -0.1926765 -0.55919987
0002e0 c6 14 3a be 24 7b 1d bf 08 04 4d 3d 7e b4 0a bf
       -0.18171987 -0.6151602 0.050052673 -0.5418166
0002f0 3e c7 1f bd fc 79 37 3e 93 7f cc be 9e 13 90 be
       -0.03900837 0.17917627 -0.3994108 -0.28139967
000300 1b 73 e7 bd 48 99 00 3f 5c 06 08 bc 10 93 70 be
       -0.113012515 0.5023389 -0.008302297 -0.234936
000310 15 81 83 3e f1 f4 28 be 1d 1c d2 3d d9 1e b2 3e
       0.2568442 -0.16499688 0.102592684 0.3478916
000320 b1 a9 ce 3d e1 c2 8f be af 27 f6 bb 48 5f 43 be
       0.1009096 -0.28078368 -0.007512055 -0.19079316
000330 5c a5 73 bc e1 c3 35 be f4 e0 e6 bd 1d da 4d 3e
       -0.014870968 -0.17750503 -0.11273375 0.20102735
000340 d3 63 26 be a7 b2 a0 be 74 f8 79 3e ff 55 8a be
       -0.16249017 -0.313863 0.24411184 -0.27018735
000350 ac 4d d7 be 5c c9 14 be f8 7a 8f 3e 1e 15 03 bf
       -0.42051446 -0.14529938 0.28023505 -0.512041
000360 43 c6 b7 be 17 9d ac 3e fe 7d 22 bd f8 0e d2 be
       -0.3589345 0.337136 -0.039670937 -0.41027045
000370 a2 e1 f5 3d 97 56 e6 3d 13 c3 8a be 3d 77 6d be
       0.12005927 0.112469845 -0.27101955 -0.23190017
000380 08 22 35 3f 7b a8 08 bf a3 93 fa 3d df 79 bf 3e
       0.7075505 -0.5338208 0.12235191 0.37397668
000390 11 30 65 3d 2f e2 77 be 2a 05 33 be d5 b7 66 3e
       0.055954043 -0.24207376 -0.17482439 0.22531064
0003a0 25 a7 c6 3d e8 a8 42 be 6b 52 14 3e d1 47 3a 3a
       0.09699849 -0.19009745 0.14484565 0.00071060384
0003b0 32 93 19 be 83 ed 98 be 89 d0 a5 3e 13 32 d0 be
       -0.14997557 -0.29868707 0.32385662 -0.40663204
0003c0 ba 82 7f be 8d 36 ea bd c9 b8 5d 3e 52 d8 a9 3e
       -0.24952212 -0.11436186 0.21652521 0.33172852
0003d0 4c ec af 3e 61 1f 0a 3e 30 99 50 bd b2 2c 69 bd
       0.34359968 0.13488533 -0.05092734 -0.05692739
0003e0 32 9b c1 3d 05 c4 54 3e 9f 57 0b be ee 0d 46 be
       0.09453429 0.207779 -0.13607644 -0.19341251
0003f0 03 22 f9 bd bd 91 bb be 10 61 3b 3d 4f e4 cb bd
       -0.1216469 -0.36634627 0.045746863 -0.09955656

weight_hh_l0 f4 [256, 64]
000000 90 ef bb 3d 08 5c 8e b8 79 da c5 3c be 1e 69 bc
       0.09176552 -6.78823e-05 0.024152027 -0.014228521
000010 cd 2f 0b 3d ec fd d7 3d 1e 22 50 3d db c0 23 3e
       0.033981133 0.10546479 0.050813787 0.15991537
000020 a4 c8 38 bd 4c c8 70 bd 6b c2 31 be d1 50 21 bc
       -0.04511322 -0.058784768 -0.17359321 -0.009845928
000030 c5 ff a6 3d 03 e8 d9 bd b3 c0 05 bd ee aa 2f be
       0.08154253 -0.10639956 -0.032654475 -0.17155048
000040 31 93 f9 3c 74 76 19 be c1 f2 af bd c5 35 16 bd
       0.030465694 -0.14986593 -0.085912235 -0.036672372
000050 57 46 1e 3d 26 3e d1 bd 3d ab 1f 3c 37 56 8c be
       0.0386413 -0.10216932 0.009745416 -0.27409527
000060 c7 43 40 be 4e 37 13 3d 8b c5 a3 3d 98 4c c9 bd
       -0.18775855 0.035941415 0.07996663 -0.09829062
000070 c7 93 87 bd aa 86 4d 3e 4b 07 97 3a 96 23 34 3b
       -0.06619983 0.20070902 0.0011522559 0.0027487031
000080 fc 14 15 be 91 31 30 be 10 0c 47 3c 71 61 d4 3c
       -0.14558786 -0.17206408 0.012148872 0.02592537
000090 1c fe 27 3e 7a af 9e 3d 78 17 0b be b3 b7 f0 be
       0.16405529 0.07748313 -0.13583171 -0.4701515
0000a0 73 d3 39 3e 7b a7 52 3d c5 b9 07 3e d2 3f 39 3d
       0.18147068 0.051429253 0.13254459 0.04522688
0000b0 9f d3 81 be 76 39 14 be 98 a8 3d be 49 3a 0d 3d
       -0.25356767 -0.14475045 -0.18521345 0.034479413
0000c0 00 c3 2a bd 03 58 44 be 0c 23 24 bd 25 28 d5 bd
       -0.041689873 -0.19174199 -0.040072486 -0.104080476
0000d0 9a e5 8f 3e a9 fc 61 be e7 d3 3c 3e cd e4 33 be
       0.2810486 -0.22069038 0.1844021 -0.1756775
0000e0 6b c2 2a 3e f4 20 37 be d4 3a c4 3d 8f 57 18 be
       0.16675727 -0.17883664 0.09581533 -0.14877151
0000f0 ce ed b0 bd a7 c5 2a bd d4 48 06 3e 8e 51 4c be
       -0.08639108 -0.041692402 0.13113719 -0.19952986
000100 d3 5e 81 bc 95 38 0d be 41 e2 89 be 04 44 6b be
       -0.015792286 -0.13791116 -0.2693043 -0.22975165
000110 fe 72 b5 bd 6b 4d 36 3e ae 7f 3b be ae 80 60 3c
       -0.08859824 0.1780297 -0.18310425 0.013702555
000120 09 74 0b 3e 27 0e 6c be 92 e8 e5 bd 9e 2b e4 3c
       0.13618483 -0.23052274 -0.11226 0.02785283
000130 3e 31 88 3d d5 66 82 3d 0a 4c 79 bd e5 26 d6 3e
       0.06650017 0.0636727 -0.060863532 0.4182655
000140 77 90 41 3e 5a b3 50 3e 70 22 93 be f8 3f 70 be
       0.18902765 0.20380917 -0.2873721 -0.23461902
000150 56 8a ed 3d 4f 1a 2b be df b0 1d 3e d7 bb 07 be
       0.11598651 -0.16709255 0.15399502 -0.13255249
000160 f4 7e 8b 3e ac 14 23 3e 92 95 9e 3e 90 92 a1 39
       0.27245295 0.15925854 0.30973488 0.0003081751
000170 b8 37 a7 be c8 57 7c be 92 39 63 3e 8c 23 44 be
       -0.32659698 -0.24642861 0.2218993 -0.19154185
000180 7c 11 fc bd 11 18 77 bd ca 3b b1 3d 95 55 6f 3e
       -0.123080224 -0.060325686 0.08653982 0.2337249
000190 25 97 c3 be ba 20 71 3c c1 9a 37 3e af 38 8b be
       -0.38201252 0.014717275 0.17930128 -0.27191684
0001a0 8a 16 56 bd f8 9e d2 3d 82 83 2d 3d e8 10 69 be
       -0.05226759 0.10284227 0.042361744 -0.22760355
0001b0 78 e8 b2 3d 9a 50 1e be 18 01 e7 3d 26 8c d0 be
       0.08735746 -0.15460435 0.112795055 -0.40731925
0001c0 04 e4 89 3e fc ce a1 3e 0c 3c 94 3e 55 f4 45 be
       0.26931775 0.3160323 0.28952062 -0.19331487
0001d0 e9 37 9d bc e1 43 35 be 9a 65 14 3e 0c d5 40 bd
       -0.0191917 -0.17701675 0.14491883 -0.047078177
0001e0 5d 78 9e bd 0f 5f 21 be 32 34 c0 bd 94 9a ef bd
       -0.07737801 -0.15758918 -0.093849555 -0.11699405
0001f0 3a 8b 0b 3e 5a 9e 04 3e fb 69 ad be fd 51 cc bd
       0.1362733 0.12951031 -0.3386992 -0.099765755
000200 9b b7 c0 be 70 6e ef be 12 ae 40 bc f8 9e d0 be
       -0.3764008 -0.46763945 -0.011760252 -0.40746284
000210 2a 6a 8b be 37 fa 7b be 1e 2f 96 be 6b 7a 69 be
       -0.27229434 -0.24607168 -0.29332823 -0.22800605
000220 e2 05 91 3e ea a2 25 be fd 59 f7 bd 8b 04 64 be
       0.283248 -0.16175428 -0.12077711 -0.22267358
000230 86 de f2 bc a6 c1 4c 3d 8c e3 a1 be 89 41 19 3e
       -0.029647123 0.049989365 -0.31618917 0.14966406
000240 9c ec ad 3d 59 fe 02 3e bc 72 1e be 4d 9c 65 bd
       0.08492395 0.12792338 -0.15473455 -0.056057263
000250 c4 d2 a4 bd 7c d0 86 bd 70 76 ad 3d 6a d1 52 be
       -0.08048013 -0.06582734 0.08469856 -0.20587698
000260 62 3f 82 3c cf 95 2b 3e 4a 39 df bb 2c 18 e5 3d
       0.015899364 0.16756366 -0.0068122493 0.11186251
000270 92 9b cc bd ad 06 9c bd 13 63 1d be a1 38 5d be
       -0.0999061 -0.07618461 -0.15369825 -0.21603633
000280 92 0f 24 3e a2 56 56 3d 75 c6 67 3d 88 f4 1c 3d
       0.16021565 0.052328713 0.056585748 0.03831914
000290 94 15 02 be ca 46 57 bd b8 85 a0 bd 56 d6 1e 3f
       -0.12703544 -0.052557744 -0.07838005 0.620458
0002a0 8a a3 86 be 75 a7 c7 3b 01 c0 d5 3d 58 23 15 3d
       -0.26296645 0.0060929605 0.104370125 0.03641066
0002b0 0d 52 6e 3e a8 a4 c5 bc af d6 e1 bd 4b 25 69 3d
       0.23273487 -0.024126366 -0.11027276 0.05692033
0002c0 02 89 1b 3e ec 14 43 3e 45 0c ab 3e dc d7 aa bd
       0.15188983 0.1905095 0.33407798 -0.08341953
0002d0 77 2d 1e bb 96 9f 50 be 03 23 5d 3d 5d 54 18 bd
       -0.0024135986 -0.20373377 0.053988468 -0.03718983
0002e0 91 fa 89 3d 33 22 d5 be 8a 43 91 3d c9 eb fe 3d
       0.06737245 -0.41627654 0.0709296 0.12447316
0002f0 20 58 4b 3e 85 9a 93 be e8 50 6e be f5 45 13 3d
       0.19857836 -0.28828827 -0.23273051 0.035955388
000300 67 8b ad be 53 4a 6b 3e 51 b1 29 3d b3 d7 15 3e
       -0.33895418 0.22977571 0.041428868 0.14633064
000310 b6 59 a6 3e 5b 93 a3 3d f3 fb e6 bd 24 97 71 be
       0.3249032 0.0798709 -0.11278524 -0.23592812
000320 1b 2f 24 be 91 0b ce be 11 32 1b be ad 8e df bd
       -0.16033594 -0.402432 -0.15155818 -0.10915885
000330 ec d2 c0 be 07 04 65 be c3 d2 fe bd 99 e6 30 3e
       -0.3766092 -0.22364818 -0.12442543 0.17275466
000340 4d 02 f0 bd 2d 76 91 be a5 63 3c be 6d ba 24 be
       -0.11719189 -0.28410473 -0.18397386 -0.16086741
000350 7c bd 61 3e bb 75 ba be 79 bc 15 be f2 4c 7c be
       0.22044939 -0.36417946 -0.14622678 -0.24638727
000360 21 80 9d 3d cc 89 04 3e 47 6b 40 3e fa 87 2c 3e
       0.07690454 0.1294319 0.18790923 0.16848746
000370 42 77 c5 bd 3c 01 2c be 21 db 21 bd 6a 11 00 bf
       -0.09641887 -0.16797346 -0.03951562 -0.5002657
000380 1a 2f 62 be 74 52 a5 bd ec 6a bf 3e 5e 18 85 3d
       -0.2208828 -0.08072367 0.37386262 0.06498788
000390 3f f7 14 3d 05 93 a6 3e 5e dd 37 be c1 e2 c9 bd
       0.036368605 0.32534042 -0.17955539 -0.09857703
0003a0 52 0a 63 be 2c 61 82 be 76 fd 14 be 97 7b 5f be
       -0.22171906 -0.2546476 -0.14549813 -0.2182449
0003b0 c5 4f e5 3d f8 88 20 be ee b2 8b be 8b 2b ad 3e
       0.111968555 -0.1567725 -0.2728495 0.33822283
0003c0 c8 f9 42 3e 19 31 0e 3e 23 8e 81 3e b4 4e 98 be
       0.19040596 0.13885917 0.25303754 -0.29747546
0003d0 73 25 67 3b 8f 64 75 be e7 39 f7 bb b5 88 4b be
       0.0035270124 -0.23964141 -0.0075447443 -0.19876368
0003e0 ea ce 18 3d 97 3c 96 3d b7 96 ba 3e 76 73 84 bd
       0.037306704 0.07335775 0.3644311 -0.06467335
0003f0 b5 1d 2a be d0 d8 34 3e cb 2d e2 bd f1 6b 27 be
       -0.16612895 0.17660832 -0.110438906 -0.1634977

bias_ih_l0 f4 [256]
000000 e7 3b ee bc 27 dd 2a be 49 fa 9c be a5 62 6f bd
       -0.029081298 -0.16685925 -0.30659702 -0.058443684
000010 ec 0f 49 3c c2 a2 38 be 5c be 00 be d8 d0 22 bd
       0.0122718625 -0.18030837 -0.12572616 -0.03974995
000020 bd 48 2f 3d 97 02 82 bd 30 89 20 be f2 b1 1d 3d
       0.042793978 -0.0634815 -0.15677333 0.03849978
000030 cc da 7b be b0 5d 41 3d cd 8a 49 be 71 d6 96 3d
       -0.24595183 0.047208488 -0.19681855 0.0736512
000040 44 ee 1b bd 99 ed 97 be ce db 79 be b2 cb 59 39
       -0.038069025 -0.2967346 -0.24400255 0.00020770615
000050 13 29 c3 bd 06 c4 0b 3e df 0e b7 3d f4 96 87 be
       -0.09529319 0.13648996 0.08938383 -0.26482356
000060 3d a4 5d bd 56 c4 41 bd 00 e8 d2 be 08 95 a8 bd
       -0.054111708 -0.04730638 -0.41192627 -0.082315505
000070 7d b4 80 bd fa 05 fd bd 17 d6 fd bd 4c 74 20 be
       -0.062844254 -0.123546556 -0.1239435 -0.15669364
000080 d8 b8 a0 3d 67 82 de 3c 76 27 58 be 3d 9c 32 bd
       0.07847756 0.02716179 -0.21108803 -0.04360603
000090 cb 9c 74 be 62 a6 78 bd 38 5e b3 be ba 1d 91 be
       -0.23887937 -0.06070555 -0.3503282 -0.28342992
0000a0 c8 d7 96 be 24 4a 83 be c6 29 8c be 41 83 72 be
       -0.29461503 -0.25642502 -0.2737562 -0.23682882
0000b0 ed 94 61 be 09 b0 53 be ea 39 89 be 78 7e 87 3d
       -0.22029467 -0.20672621 -0.26801997 0.06615919
0000c0 0f 69 b5 be f0 17 06 3e 78 5f 83 be c0 2f 85 bd
       -0.35431716 0.13095069 -0.25658774 -0.06503248
0000d0 b7 03 65 be 9a e3 bb be 4a e9 8b bd e6 02 09 bd
       -0.22364698 -0.36697084 -0.06831606 -0.03345003
0000e0 f1 67 2b 3e 11 14 cf 3d a8 0c c3 3d 96 8f f3 bd
       0.16738869 0.10111249 0.09523898 -0.11892621
0000f0 fd e9 11 3e 0b 54 bc 3c 4f 2c 32 be 4b ff 19 3d
       0.14249416 0.022989294 -0.17399715 0.037596982
000100 88 00 f9 bd d0 ab 17 be 33 4b 17 be ba 31 e4 3d
       -0.121583045 -0.14811635 -0.1477478 0.11142297
000110 b6 ed 06 bd 53 ba 22 be 25 ce a1 bd 96 19 5e bd
       -0.032941543 -0.1589139 -0.07900647 -0.05422362
000120 15 91 42 be b4 b4 6a 3e 2b 72 fb bd 99 67 c1 3c
       -0.19000657 0.22920495 -0.12277635 0.02360897
000130 be 66 31 bd 75 c8 9a bc 81 84 82 be 47 91 3c 3e
       -0.043310873 -0.018894413 -0.25491717 0.18414794
000140 40 a8 9e 3e 6c 05 ec bd f6 03 91 3c 4d b5 43 3d
       0.3098774 -0.11524472 0.017702084 0.047780324
000150 eb cf ac bd 7f ff 89 3d 32 1c 6a be 23 df 83 3d
       -0.08438095 0.06738185 -0.22862318 0.06439044
000160 53 89 bc 3d 97 e2 c4 bc 2b dc e7 bd b9 cc 73 be
       0.0920588 -0.024033828 -0.113212906 -0.23808564
000170 31 59 ce 3e 7b 0d a9 bb 6a 8b cc bd 32 a1 6b 3e
       0.40302423 -0.0051590777 -0.099875286 0.2301071
000180 be ca 8e bd 4f 80 ef 3d ef b7 da bc 01 2f 2c 3e
       -0.06972264 0.11694395 -0.026699034 0.16814806
000190 f8 cc 40 3e fb 61 35 bd 87 5f 0e be bc b2 a3 3e
       0.1882819 -0.044282895 -0.13903628 0.319723
0001a0 d7 5a bb bd 28 59 0d be f1 f1 88 be c3 ae fe bd
       -0.09148186 -0.13803542 -0.26747087 -0.12435677
0001b0 14 69 8a be f4 4a 42 be 96 9b a4 be 81 98 a3 3d
       -0.27033293 -0.18973905 -0.32149953 0.07988072
0001c0 d8 16 d5 bd 0f cc 87 3e 3e 33 1e 3e ed 38 a9 3d
       -0.10404748 0.26522872 0.15449235 0.08262811
0001d0 c7 28 b4 be ff 1c e3 bd ee 57 2b 3c 9b b1 3d be
       -0.3518736 -0.11089515 0.010457976 -0.18524782
0001e0 78 f2 49 3c dd 96 e3 3c 97 69 c0 3d f1 a7 e3 bd
       0.012325875 0.027781898 0.0939514 -0.11116017
0001f0 0b 16 5a 3c 45 da ac 3a c3 76 95 bd 72 77 41 be
       0.0133109195 0.0013187608 -0.072980426 -0.18893221
000200 fe 0b f4 bc 95 2e 2b 3d 4f 04 30 bd bc e1 34 be
       -0.029790875 0.04179247 -0.04297286 -0.17664236
000210 ae 1f 26 3e ec 13 30 bd db 43 db bc 8b 20 93 bd
       0.16223022 -0.04298775 -0.026765754 -0.071839415
000220 5d 21 5e 3d ef fe 72 3d 12 33 a6 3c f1 a9 a2 3d
       0.054231036 0.059325155 0.020288024 0.0794257
000230 38 5f 25 be 12 d1 98 3d 32 f1 f2 bd 29 7d 04 be
       -0.16149604 0.07461752 -0.118624106 -0.1293837
000240 43 89 9c 3c 13 65 bd 3c fd 11 09 bd 9a 0b ee 3d
       0.01910842 0.023119485 -0.03346442 0.116233066
000250 95 ce fe bd 77 53 e1 bc d4 fc 3f bd f8 03 43 3d
       -0.12441746 -0.02750562 -0.046871975 0.047611207
000260 a4 8d cb bd 44 70 e9 bc 79 fd 8c 3d c2 5d d0 3d
       -0.09939125 -0.028495915 0.068842836 0.10174133
000270 00 1d de 3d 72 7b 51 3e e4 84 fc bb 4d 0f 86 bd
       0.10845375 0.20457247 -0.0077062715 -0.06545887
000280 0d ea eb 3c d8 1f 11 bc 86 84 b7 bd 03 ba 62 bd
       0.028798128 -0.00885769 -0.08960824 -0.055353176
000290 6e b8 9b 3b 79 a6 82 3c f2 78 68 3d 0e 82 4e bd
       0.0047522103 0.015948521 0.056755967 -0.050417
0002a0 5e 3c 3b bd 51 fa 07 bd e8 aa 18 bd 80 f5 ea bd
       -0.045711868 -0.033197705 -0.037272364 -0.11472607
0002b0 4a 4a 94 3d e6 d0 19 bd 4d 26 cd bc d8 94 d4 3d
       0.07240732 -0.037552737 -0.025042677 0.10379952
0002c0 8a 7c 87 3d 4b 0d 6c bd e4 2d c4 3d 67 08 e0 3d
       0.06615551 -0.057629865 0.095790654 0.109391026
0002d0 c4 16 60 bd 1f 22 1c bd 63 34 ec bb e4 97 bc bc
       -0.05470921 -0.038118478 -0.0072083934 -0.023021646
0002e0 d5 07 33 bd 98 9f 21 be f9 d1 57 3d 93 af f7 bc
       -0.04370864 -0.15783536 0.05269048 -0.030235087
0002f0 64 d2 18 bd 9e d7 85 bd 85 07 5f 3d 3f c7 43 3e
       -0.03731002 -0.06535266 0.05445053 0.19118975
000300 f6 4a 52 be cf 39 a8 3b 27 8b 0c be 0e db 65 3c
       -0.20536408 0.0051338444 -0.13724957 0.0140292775
000310 9b 55 e4 3d 8c 4f 53 bd 17 ec 00 be 8f ed 07 bd
       0.111491404 -0.051589534 -0.12590061 -0.033185538
000320 c7 ea 0c 3e 06 9a f6 bd c5 ce c6 bd 3e 5c 8f 3c
       0.13761435 -0.120410964 -0.09707407 0.01750004
000330 1b 1b 49 b8 56 2b 6f be 2d 88 38 be 6d 42 3c bd
       -4.794738e-05 -0.23356375 -0.18020697 -0.045961786
000340 a8 dc a3 3b ca 84 a6 be 36 69 a4 be 55 40 0e bd
       0.0050006695 -0.32523185 -0.3211152 -0.03472932
000350 4c 2e a3 bb fd 7c d7 3d bf 2d b0 bd 3f 8a 7f 3d
       -0.0049798843 0.105218865 -0.086024754 0.0623877
000360 fa 2a 3a be c1 e0 50 be e9 27 f3 bd 60 47 79 bd
       -0.18180457 -0.20398237 -0.11872847 -0.060859084
000370 8b 17 84 3d 81 08 2c be b7 58 43 3e 94 37 b3 3d
       0.06449803 -0.16800119 0.19076811 0.08750835
000380 33 0d 90 bd 52 3b f8 bc 57 75 3f be 46 56 84 be
       -0.070337676 -0.030301724 -0.18697105 -0.2584707
000390 6e 18 47 be 5a 54 40 be fb 37 8f be 2a ce 4e 3e
       -0.19442913 -0.18782178 -0.27972397 0.20195833
0003a0 2b 3b 3b be 14 c8 12 be 97 96 3d be 88 17 51 be
       -0.1828429 -0.14334136 -0.18514477 -0.20419133
0003b0 2a 48 66 bd 3a 05 93 be d5 c5 e7 bd 10 c8 50 3d
       -0.056221165 -0.28714925 -0.1131703 0.050972044
0003c0 e9 ee b6 be 6e d5 06 3e 70 74 5b be 7f 4a 1f bc
       -0.3572915 0.13167354 -0.21431136 -0.009722351
0003d0 f2 46 01 be 21 46 84 be 91 45 99 be 7b 3d 56 bd
       -0.1262472 -0.25834754 -0.29935887 -0.052304726
0003e0 66 27 42 3d 22 1e 21 3d 9f 52 7d 3d d5 d6 aa bd
       0.047400855 0.039335378 0.06184637 -0.08341757
0003f0 30 1a 4f bd ca 1c 91 3d 62 16 d1 bd c5 c5 1d be
       -0.050562084 0.07085569 -0.10209347 -0.15407474

bias_hh_l0 f4 [256]
000000 7d 2d 82 bc 89 56 b6 bd 06 4d 6f be 31 63 0b be
       -0.015890831 -0.08903224 -0.23369226 -0.13612057
000010 d8 92 b0 bc dc 38 88 bd 70 fd 41 be 3a 3c 56 3d
       -0.021554396 -0.0665147 -0.18944335 0.05230353
000020 70 0b 0d 3e b4 22 13 3c f5 f7 05 be 64 dd 96 bd
       0.13773894 0.008980442 -0.1308287 -0.07366446
000030 67 20 ac be 85 21 0c be 13 d0 35 be 69 c8 20 3d
       -0.3361847 -0.13684662 -0.17755155 0.039253626
000040 6d f7 57 be a0 c6 a8 be 72 14 9c be 33 cb 58 3d
       -0.21090479 -0.3296404 -0.3048435 0.05292816
000050 72 03 6c be 9d 88 aa bd 15 02 df 3d 84 81 fb bd
       -0.2304819 -0.08326838 0.10889069 -0.122805625
000060 42 4a dc bd ac c0 e9 bd 01 45 ad be 4a 7d 91 3d
       -0.10756351 -0.11413702 -0.33841708 0.07103975
000070 9f 94 de 3a a8 82 82 bc 6c 26 dd bb 91 86 0c be
       0.0016981548 -0.015931442 -0.006748965 -0.13723208
000080 d4 1b f5 ba ac bf a6 bd a5 ff bf bd 08 30 39 bd
       -0.001870031 -0.08142027 -0.09374932 -0.04521182
000090 59 35 73 be c8 3c e1 bd b7 8b 3f be 14 22 a9 be
       -0.2375082 -0.10997921 -0.1870564 -0.33033812
0000a0 19 52 77 be 3e 3a 4a be 28 ef 84 be 69 99 3a be
       -0.24152412 -0.1974878 -0.25963712 -0.18222584
0000b0 32 2f 2c bd cc 85 37 be c6 5e 9a be f4 2c 95 3e
       -0.042037196 -0.17922133 -0.3015043 0.2913586
0000c0 5c 7c 31 be f5 3e 04 3e 8a f3 79 be 5b 57 1c bb
       -0.17332596 0.12914641 -0.24409309 -0.002385578
0000d0 5d a9 bd be 4f 3c 85 be 4c 12 3b be 4c 77 56 be
       -0.37043276 -0.26022574 -0.18268698 -0.20943946
0000e0 75 08 31 3e d8 29 c6 3d b4 de 87 3d dc 18 81 be
       0.17288382 0.0967595 0.06634274 -0.2521428
0000f0 cd 73 00 bd 1f af 3a be 3e cd 15 be 16 33 dd bd
       -0.031360436 -0.18230866 -0.14629075 -0.108007595
000100 ce 1e 67 be df 76 0c be ee 80 6b bd 1b e9 98 3b
       -0.22570345 -0.1371722 -0.057496004 0.00466646
000110 26 09 6a 3d 6e ab ab bd fd 40 44 be 78 ee 1a bd
       0.05713763 -0.08382307 -0.19165416 -0.037825078
000120 4b 52 ba bc 3b ee 79 3e 4a a2 d8 bd ce 46 0d 3d
       -0.022744318 0.24407284 -0.10577829 0.034491353
000130 f7 7a 81 bd 45 11 d6 bd c2 51 ff bd 74 ef 82 3e
       -0.06322282 -0.10452513 -0.12466766 0.25573313
000140 0f 41 b0 3e bb c1 c9 bc 8a c4 5f 3d 1d 3b d2 bd
       0.34424636 -0.02462851 0.054630794 -0.10265181
000150 05 6a 06 bd 7e f7 b3 3d b1 65 4c bd 4d b5 80 bd
       -0.03281595 0.0878744 -0.049901668 -0.062845804
000160 51 c2 60 bd 10 b0 db bb 3c 12 24 be 15 77 22 be
       -0.054872815 -0.006704338 -0.16022581 -0.15865739
000170 2a a9 94 3e bb 80 76 3d d7 6c 7f be 9c 95 13 3e
       0.29035312 0.06018136 -0.24943863 0.1441254
000180 0f 08 4e be 78 5e 21 3e ae e2 a6 bd 7f 33 9f 3d
       -0.20120262 0.15758693 -0.081487045 0.07773494
000190 12 b3 00 bc 98 59 a2 bd 3c 45 c8 bd 24 34 71 3e
       -0.007855194 -0.07927245 -0.097788304 0.23555046
0001a0 87 e3 44 bd 85 0f c8 bd b4 50 0a be 84 b1 04 bd
       -0.04806855 -0.09768585 -0.13507348 -0.032395855
0001b0 c6 d4 05 be ba 53 35 bd 96 04 89 be 58 d5 c3 3b
       -0.13069448 -0.0442693 -0.2676131 0.0059763603
0001c0 da 6b 10 be a9 fe 8e 3e 30 34 3e bd e1 b2 3b 3e
       -0.14103642 0.27928665 -0.04643649 0.18329956
0001d0 69 cd 85 be ee d1 26 be 83 8a 91 bd 05 1c 26 3d
       -0.26133278 -0.1629102 -0.07106497 0.040554065
0001e0 b4 5a e1 bc 83 8d c9 bc 41 b8 80 3e c7 1e df bd
       -0.027509071 -0.02460361 0.25140575 -0.10894542
0001f0 a2 40 ce bc b7 d8 c9 3d 5f 75 26 be d6 76 84 bd
       -0.025177304 0.09855788 -0.16255711 -0.06467979
000200 ae a4 91 bd db 37 ec bd b7 34 a2 3d d4 af 4f 3c
       -0.07111488 -0.11534091 0.07920211 0.012676198
000210 fa 0b ab 3d 00 d2 03 be 6a 28 20 bb 47 50 8d bd
       0.08351894 -0.12873077 -0.002443815 -0.06900077
000220 d9 ee 4f bd 19 40 5f 3e 34 ed 3f 3d fa ed 89 bd
       -0.050764892 0.21801795 0.046857074 -0.067348436
000230 45 7f 9d bd 52 e4 c7 bc 72 06 1e be c1 f5 f8 bd
       -0.0769029 -0.024400864 -0.15432146 -0.12156249
000240 b8 06 55 bc c3 7a ad 3d 92 76 9a 3d 39 98 18 3e
       -0.01300209 0.084706806 0.07542147 0.14901818
000250 20 d8 02 bc 48 ed 72 bc 6b d0 fe 3d db 72 bd bc
       -0.0079860985 -0.01482708 0.12442096 -0.023126056
000260 50 7c 80 3c 0b be 10 be b6 ac f6 3d 42 4b 4d 3d
       0.015684277 -0.14134996 0.12044661 0.0501206
000270 84 52 38 3e 67 b5 4c 3d 32 12 d6 bd 70 71 a3 bd
       0.18000227 0.049977686 -0.10452689 -0.07980621
000280 8a d7 7b 3e 1f ca c7 3d 72 87 cd 3d 56 63 2f 3d
       0.2459394 0.097553484 0.100356 0.042819344
000290 86 51 a4 3d cf 82 3e be 9e 4b f1 bb 93 89 e0 bd
       0.08023362 -0.18604587 -0.0073637506 -0.1096374
0002a0 61 df 54 3d 2b 45 64 3d 69 ba 39 3d 4a 7b ea bd
       0.051970843 0.055730026 0.04534379 -0.11449297
0002b0 03 0c 9d 3d f0 05 f0 bc 89 42 22 bd 40 f8 3c 3e
       0.07668307 -0.029299706 -0.039614234 0.18454075
0002c0 ee f2 2a bd 75 d0 1a be ea 01 a0 bd dc be af bd
       -0.041735582 -0.15118583 -0.07812865 -0.085813254
0002d0 03 74 88 bc a6 bb 5b 3c 4d 20 ef bd 9f da 46 bc
       -0.016656881 0.013411438 -0.11676083 -0.012137084
0002e0 5f 83 a8 bd 29 ca 1e bd 5d 5f 3a bd 47 16 29 3e
       -0.08228182 -0.038767014 -0.0455011 0.16512404
0002f0 79 e5 d6 3d b5 f5 0b be 49 26 05 3d 39 6a 71 3e
       0.10492987 -0.13667949 0.032507215 0.23575677
000300 4c f1 93 be 22 d9 04 be 54 54 f7 bd f3 62 09 3d
       -0.28895032 -0.12973455 -0.12076631 0.03354163
000310 50 f2 c4 3d 77 da 6c be ad 4d 81 be 87 0a f3 bd
       0.0961653 -0.23130213 -0.25254574 -0.11867242
000320 4d 36 de 3d 92 e0 16 3d 41 d5 5a be e1 ec 07 3d
       0.10850201 0.03683526 -0.21370412 0.03318489
000330 a8 e8 e8 bb fd f9 6f be 3c 6a c7 bd fd 7d 8d be
       -0.007107813 -0.23435207 -0.097370595 -0.27635184
000340 ef e0 d2 3c d3 5d 92 be a5 eb 12 be db 70 e5 3d
       0.025742022 -0.28587207 -0.14347704 0.11203166
000350 d3 c3 e5 bd 5c 83 12 3e f7 f4 42 be 03 b3 01 be
       -0.11218991 0.14307922 -0.19038759 -0.12665944
000360 cb 4c 74 bd 5c 2b 6f be 89 d8 5d be c4 98 4a bc
       -0.059643548 -0.23356384 -0.21664633 -0.012365524
000370 d1 d7 91 3d 95 80 5d be 39 ca 97 3d 0a 1c 6f bd
       0.07121242 -0.21631081 0.07411618 -0.05837635
000380 94 f6 eb bd 78 f2 41 be a3 6f 37 be ef fb 65 be
       -0.115216404 -0.1894015 -0.1791368 -0.22459386
000390 7c bd 2f be 3a 59 2e 3c 3d fe 25 be 24 5d 0a 3e
       -0.17162126 0.01064139 -0.16210265 0.13512093
0003a0 e1 89 8a be a5 7b 98 be 93 38 94 be 16 56 ff bd
       -0.27058318 -0.29781833 -0.28949413 -0.124675915
0003b0 6c 3c 0b be 4d 1e 5e bd d2 aa 28 be 28 74 33 3e
       -0.13597268 -0.054228116 -0.16471413 0.17524779
0003c0 a3 59 7a be 34 00 01 3d fd 9d 62 be 75 00 bf bc
       -0.24448256 0.031494334 -0.2213058 -0.023315648
0003d0 4b dd 9d be 75 be b1 be b8 4e 31 be 39 af 6e bc
       -0.30832896 -0.3471562 -0.17315185 -0.0145681435
0003e0 bd 83 f3 3d e8 3d 8e bd 39 9a 68 3e d2 fb 32 be
       0.118903615 -0.069454014 0.22715081 -0.17478874
0003f0 aa 5c 8d 3c 30 26 d5 3d 04 f0 80 be 54 3b a0 be
       0.0172561 0.10407674 -0.25183117 -0.31295264

weight_ih_l0 f4 [128, 64]
000000 79 8a 66 be bf 92 f0 be aa 94 a6 3d f4 ea 68 be
       -0.2251376 -0.46986958 0.08133824 -0.22745878
000010 70 3e 61 be 3b 32 bf 3d 6f 86 be 3d 8a 63 33 be
       -0.21996474 0.093357526 0.09302985 -0.1751844
000020 f3 8a 8e 3e 02 48 3c be 07 ec ca 3e 6a f3 8b 3e
       0.27840385 -0.18386844 0.396332 0.27334148
000030 c3 c7 28 3e 1c f4 3f 3d 22 47 a9 bd 18 20 52 bd
       0.16482453 0.04686366 -0.08265521 -0.05130014
000040 fe 37 0b 3d 81 8d c6 bd 34 a4 b5 bd 05 69 00 bf
       0.033988945 -0.096949585 -0.0886921 -0.5016025
000050 54 8c 6f 3d e2 8b 9f be 77 5c 9f 3d b6 54 8a be
       0.058483437 -0.3116141 0.07781308 -0.27017754
000060 ee 16 a2 bd cf 65 22 be e3 c5 69 be b2 a4 b3 3e
       -0.0791453 -0.1585915 -0.22829394 0.3508659
000070 9b dd 8d 3b 97 ae 81 bd c4 c2 e4 be 2d bb 68 be
       0.004329396 -0.063321285 -0.44679844 -0.22727652
000080 99 71 bb be 33 8d 1b bd 89 e1 22 bd 19 b2 c6 bd
       -0.36610106 -0.037976455 -0.03976587 -0.09701938
000090 bf dc 2b 3e a8 97 35 3e 61 94 74 be bc 82 90 3d
       0.16783427 0.17733634 -0.23884727 0.070561856
0000a0 c0 87 93 3e d8 d6 02 be e2 96 dc 3d c3 96 d8 bd
       0.28814507 -0.12777269 0.10770966 -0.105756305
0000b0 61 ef 40 3e ca cb 93 bd cd 14 be bd af 65 0c 3e
       0.18841316 -0.07216604 -0.09281311 0.13710664
0000c0 22 44 3f bd 75 df 0e be 05 0f 27 3e 22 0f 33 be
       -0.046695836 -0.1395243 0.16314323 -0.17486241
0000d0 f9 e6 b4 3e db d8 03 3e 42 36 46 bd 91 cf 46 3e
       0.35332468 0.12875693 -0.048391588 0.19415118
0000e0 1d a1 59 3d 0a 0f e2 3d ed 7e 81 3e ae d0 17 be
       0.053132165 0.11038025 0.2529215 -0.14825699
0000f0 26 f0 8a be f5 37 d5 3d 52 e6 e3 3e 87 13 fa bc
       -0.27136344 0.104110636 0.44511658 -0.03052689
000100 44 e1 e7 3d 93 39 86 be 1b 94 28 3e cc 06 eb bd
       0.11322263 -0.262158 0.16462748 -0.11475906
000110 9d 15 d7 bd 7c d8 69 bd 76 cf 8d 3e 4e 89 77 bd
       -0.10502169 -0.05709122 0.27697343 -0.06043368
000120 8e 27 de bd f2 36 a2 3d 35 5d a5 be 91 cb f3 bd
       -0.10847388 0.07920636 -0.32297674 -0.119040616
000130 7b 1f 1a 3a 5a b4 da 3d a1 45 9f be 1f 55 bd be
       0.0005879325 0.106789306 -0.3110781 -0.36979005
000140 3f 2e 42 be a4 5c 2a be 1d 29 5c bb 4a 51 f0 bc
       -0.18962954 -0.16636902 -0.0033593841 -0.029335637
000150 7c 02 a9 3e 69 27 13 3d 7b c2 ab 3d b0 ef 0b bc
       0.33009708 0.035926256 0.083867036 -0.008541033
000160 cf 7f 9d bd 2b dd 93 be dc 69 3a be a6 44 a3 3e
       -0.07690393 -0.28879675 -0.18204445 0.31888312
000170 ef 90 70 3e 33 20 fd 3c 16 ba c8 be 1b 2e 24 3e
       0.23492788 0.030899143 -0.39204472 0.16033213
000180 3c dd 42 bd e7 66 e0 3d e3 44 05 3e a1 b2 01 bd
       -0.047574267 0.10957127 0.1301456 -0.031664494
000190 53 c8 fd 3e 95 e3 62 bc 9e c3 1a 3d b7 87 74 3e
       0.49566898 -0.013848205 0.03778421 0.23879896
0001a0 27 c2 a6 3e 63 30 85 be fb 0b 43 3e 94 08 ed 3d
       0.3257 -0.2601348 0.19047539 0.11573902
0001b0 f9 09 5e 3e f2 0a 8d 3c ae 6b 8f be 6f 1a b7 3e
       0.21683492 0.017217133 -0.2801184 0.35762355
0001c0 18 2e 9a be 5b b0 a9 be 20 53 c9 bd db 33 48 3e
       -0.30113292 -0.3314236 -0.09830308 0.19551031
0001d0 03 6b 5b bd 2c 0b aa 3d e8 a8 74 be e1 0b 58 bd
       -0.05356885 0.08302912 -0.23892558 -0.052745704
0001e0 aa b6 45 be ad 7c f9 3c 9e 2e f0 3e 07 68 8c 3d
       -0.19307962 0.030454958 0.46910566 0.06855779
0001f0 77 0a 2d be 4c f8 b4 be d4 8f 0f 3e f2 8d d9 bd
       -0.16898523 -0.35345685 0.1401971 -0.10622777
000200 d4 41 21 be 01 9a 86 be 11 15 84 3e 73 12 04 bd
       -0.15747768 -0.2628937 0.25797322 -0.032244157
000210 a1 57 ed bd dd 8d 2b be 14 a7 00 be 62 7c 60 be
       -0.115889795 -0.16753335 -0.12563735 -0.21922448
000220 fc 6b 55 3e de 05 75 bd a7 8d 25 3d 15 ad 03 be
       0.20841974 -0.05982005 0.040418293 -0.12858994
000230 22 27 6b 3e 4f 2d 91 be c3 f4 d9 be 21 e1 a5 bd
       0.22964147 -0.2835488 -0.4256955 -0.080995806
000240 d7 a1 b8 be 38 b4 4e bd bd 5a 6e be 1b ba cd 3c
       -0.36060974 -0.05046484 -0.23276801 0.025113156
000250 92 f8 8d bd 71 a2 a3 be f0 78 33 3e 65 6d 82 be
       -0.06932177 -0.3195987 0.17526603 -0.25474086
000260 3b d4 55 be e4 d4 08 be 6e 06 20 bf dd 0f 04 3e
       -0.20881741 -0.13362461 -0.6250981 0.12896676
000270 19 51 ca bc 72 8e 0c 3d 4a e2 a3 be a2 bb de bd
       -0.024696874 0.034315534 -0.32008582 -0.10875632
000280 85 76 00 3d 72 5f 27 be 5a 76 9b 3d 71 d1 3f 3e
       0.03136303 -0.16345003 0.07590933 0.1873224
000290 75 cc 0f 3e f2 bb 9a bd 59 45 ae be 70 9b c0 3e
       0.14042838 -0.07555379 -0.34037283 0.3761859
0002a0 2b df af bd d4 4d 71 39 29 73 0f bc 65 c4 b7 3d
       -0.08587488 0.00023012544 -0.008755484 0.08973006
0002b0 01 1a f0 3d de ae db 3d 34 61 80 be a2 dd 2b 3f
       0.1172371 0.10726713 -0.2507416 0.6713506
0002c0 34 8d 1d bb c6 f7 4c 3d d0 2a 0b be 52 eb 80 bc
       -0.0024040462 0.050040983 -0.1359055 -0.01573721
0002d0 27 7d 2c 3e 21 2a 73 bd c4 18 c6 3d 52 db 55 be
       0.16844617 -0.05936635 0.096726924 -0.20884445
0002e0 fc 40 ec 3e d0 30 cc 3c 8f d9 05 3f ed 19 72 3d
       0.4614333 0.02492562 0.52285093 0.059106756
0002f0 74 fe f6 bd dc c9 9d be 98 d2 26 3f bd 6e a7 be
       -0.12060252 -0.3081807 0.6516509 -0.32701674
000300 8d 1d 06 be a1 70 a3 be 99 58 54 3e 6e 2c bc bb
       -0.1309721 -0.31921867 0.20736922 -0.005742601
000310 53 10 a2 3d 00 96 4b 3e c0 ec 22 3e 36 69 85 be
       0.0791327 0.19881439 0.15910625 -0.26056832
000320 66 5d ba 3d ad 65 ba bc d8 d6 46 3e 16 4b ec bd
       0.090998456 -0.02275356 0.19417894 -0.11537759
000330 69 cc 66 3d 4c 16 a7 bd 08 2d bd be 53 04 83 be
       0.056347284 -0.0815855 -0.3694842 -0.25589237
000340 d5 95 90 ba 9f e0 89 3e 63 2c 90 be b2 76 c2 bd
       -0.0011030982 0.26929185 -0.28158864 -0.094952956
000350 36 b6 d7 3d ea f9 6d be 93 d7 70 3d 30 c9 55 be
       0.10532801 -0.23239866 0.058799338 -0.20877528
000360 3c 1a b7 3c d5 44 d5 bd 18 35 14 bf 74 5f 9f 3e
       0.022351377 -0.10413519 -0.57893515 0.31127512
000370 ac fd 53 bd 6f 28 27 3e 3b 54 18 bf 24 0e 55 be
       -0.051755592 0.16324018 -0.59503525 -0.20806175
000380 a7 0c 3b be a0 b3 41 bc bf 22 80 3c 24 40 fc bd
       -0.18266545 -0.011822611 0.015641568 -0.12316921
000390 bf a3 68 3e a5 97 86 3c 0e 71 87 bc 33 21 16 3f
       0.22718714 0.016429732 -0.0165334 0.5864441
0003a0 9a ff 2b 3e f3 54 26 be 91 08 66 3e 7f ed 86 be
       0.16796723 -0.16243343 0.22464205 -0.2635307
0003b0 ed ba af 3e 6b 78 ad 3c 27 25 6e be 60 c8 41 3f
       0.343223 0.021175584 -0.2325636 0.75696373
0003c0 5b 63 55 3e c2 fb 87 be 1d ef f1 bd df e7 f5 bc
       0.20838682 -0.26559263 -0.11813185 -0.030017791
0003d0 09 b4 7c 3e e5 39 70 bd f9 9a a0 3e 76 8e 91 3d
       0.24678053 -0.058648963 0.31368235 0.071072504
0003e0 bc d8 b7 3e 5f e2 34 3e d6 69 07 3f 31 b7 ce bd
       0.35907543 0.17664479 0.5289587 -0.10093535
0003f0 a1 7e a2 be ed cf 32 bb d3 fb b2 3e 38 c9 1a be
       -0.31737235 -0.0027284578 0.34957752 -0.15115821

weight_hh_l0 f4 [128, 32]
000000 e6 99 c7 bd 59 56 8d 3e 4f 92 99 b9 ae af d3 3c
       -0.09746151 0.2760494 -0.00029291442 0.025840607
000010 21 b8 78 bd 37 ef 6e be 89 09 00 3e 83 20 81 bd
       -0.060722474 -0.2333344 0.12503637 -0.06305029
000020 27 60 76 3d 82 97 e4 3d f9 3a d9 3d 50 53 0f 3e
       0.06015029 0.1116171 0.10606951 0.13996625
000030 ef 16 3a be b9 39 26 3e f6 46 fb bd 90 b3 a5 3e
       -0.18172811 0.16232957 -0.12269394 0.32363558
000040 d8 76 f8 bc 60 b0 bf 3e c4 64 85 3e 26 0c 7e bd
       -0.030330107 0.3743925 0.2605344 -0.062023304
000050 39 a8 49 be cc 99 7c 3c 69 53 a5 bd e9 1d a1 be
       -0.19693078 0.015417527 -0.0807255 -0.31468132
000060 ee a9 15 3e 1d c1 93 bc 4a dd 50 3d fb 05 27 be
       0.14615604 -0.01803642 0.050992288 -0.16310875
000070 32 36 8a 3d 48 ea 20 bd ea 2f e8 bd 9a 56 83 bd
       0.06748618 -0.039285928 -0.11337264 -0.06413002
000080 0b 6f 5b 3d 81 03 ce bd 0b f7 ac bd 93 7b 42 be
       0.053572696 -0.10059262 -0.08445557 -0.18992452
000090 fb 11 1d be 02 1a a2 3d dd 6e 79 3e 06 2c 83 be
       -0.1533889 0.07915117 0.24358697 -0.25619525
0000a0 85 23 aa 3e 38 2e e3 be a1 05 20 be 54 fc 2d 3e
       0.33230224 -0.443712 -0.15627147 0.16990787
0000b0 79 a3 d8 bd 9e 28 24 be 8c 66 56 3e 99 41 a8 3e
       -0.10578055 -0.16031119 0.20937556 0.32862547
0000c0 04 44 df 3d 6b 21 c8 3e 76 c5 6a 3e a4 ef a5 be
       0.10901645 0.39087996 0.22926888 -0.32409394
0000d0 55 86 ad 3e e8 5f 75 3e 18 e0 63 be 6e 1d b6 be
       0.3389155 0.23962367 -0.22253454 -0.35569328
0000e0 c2 23 29 be 37 0a 87 3e d5 65 f2 bd 3f 64 d2 3d
       -0.16517547 0.2637498 -0.11835829 0.10273027
0000f0 18 2d 18 3e fc 2b 9a bd c9 fc d4 3e 97 7e 14 be
       0.14860952 -0.075279206 0.4159911 -0.14501415
000100 3c 70 3c 3d 06 33 09 3e 82 45 6b bd 08 d4 6f be
       0.046005473 0.1339837 -0.057439335 -0.23420727
000110 20 86 71 bd 77 b0 0b 3e bd 6e de 3d df 74 87 be
       -0.058965802 0.13641535 0.108609654 -0.26456353
000120 fe 92 20 be ba a8 49 3e cf 83 cb 3d 74 db 1b bc
       -0.15681073 0.1969327 0.0993725 -0.009512771
000130 e3 d8 7b 3e 2c 10 c2 be cf e7 fb 3d 50 be 09 3e
       0.24594454 -0.37902963 0.12300073 0.13451505
000140 6a 07 25 3e 11 87 28 3d 40 7b 94 be 56 ab 11 be
       0.1611611 0.041144434 -0.29000282 -0.14225516
000150 44 87 51 be 98 e5 c0 3c d4 d6 65 3e 2d be 9b be
       -0.20461756 0.023546979 0.22445232 -0.3041853
000160 fe f4 37 bd e3 0f 03 be f0 c7 7f be 39 f3 9d 3c
       -0.044911377 -0.12799029 -0.24978614 0.019281017
000170 63 0f af 3d 98 9c 4c bd 86 da b4 3e 4e d4 b5 bd
       0.08547857 -0.049954027 0.3532297 -0.088783845
000180 58 98 52 be b3 79 38 bd 90 31 2c be 85 52 b0 bd
       -0.20565927 -0.045037936 -0.16815782 -0.08609489
000190 00 d3 20 bc 88 81 92 bd 15 f7 86 3e 95 00 a1 be
       -0.009815931 -0.071536124 0.26360384 -0.31445757
0001a0 b7 a5 2a be d6 67 93 3e 52 bf 6d 3e 3e 6f ec 3d
       -0.16664778 0.28790158 0.23217514 0.11544655
0001b0 8a 95 a8 bc a6 6e 50 bd 7b 09 5d 3e 49 f1 56 bd
       -0.020579118 -0.050886773 0.21585648 -0.0524762
0001c0 46 31 3e 3b f8 5a 69 ba 30 d3 bd bd 14 5d 56 3d
       0.0029021068 -0.00089018 -0.092687964 0.05233486
0001d0 9c c6 ab be 1a e7 8e 3e 85 8b 39 3e a1 34 12 be
       -0.33549964 0.27910691 0.18119629 -0.14277889
0001e0 b4 17 77 3e 50 db 98 3e a1 9c 0f be b2 1f 4a 3e
       0.24130136 0.29854822 -0.14024593 0.19738653
0001f0 c5 a8 6f 3e f0 3b a2 3c b0 e5 12 3e fa cb ed bd
       0.23404224 0.019803971 0.14345431 -0.11611171
000200 61 6b 20 be b1 21 28 3e dc db 57 bb 0a 69 db 3d
       -0.15665962 0.16419102 -0.0032937443 0.10713394
000210 7f 04 86 be aa 04 fe bd ac 06 e5 3e 00 ca 35 bc
       -0.26175305 -0.12403233 0.44731653 -0.011095524
000220 24 3e 8d be 3d 1f 95 3e 08 ce 0f 3e dd 31 bf 3e
       -0.27586472 0.29125395 0.14043438 0.3734273
000230 f7 17 73 be 4e 9b 37 3e a2 32 c4 bd 4d b5 43 bd
       -0.2373961 0.17930338 -0.0957997 -0.047780324
000240 d1 b2 97 be 68 9a 20 3d 56 8f 92 bd 74 8a 4c 3e
       -0.29628614 0.039209753 -0.071562454 0.1997469
000250 14 4b 31 bd 22 d6 ae 3d 61 a1 c1 bd 76 e6 27 be
       -0.04328449 0.08536936 -0.09454609 -0.16396508
000260 ca c3 ba 3c 3b 05 d5 3e c0 b3 08 3e 3b d3 dd bb
       0.022798438 0.41605553 0.13349819 -0.0067695654
000270 3c 97 61 3e e7 87 34 be c6 b2 29 3e a5 f3 86 bd
       0.22030348 -0.17629968 0.16572103 -0.0658944
000280 4f b6 90 be f5 fa bc 3d 17 48 8e be 5d 11 09 3e
       -0.2826409 0.09227554 -0.27789375 0.1338553
000290 1b 38 aa 3d c7 20 5f bd 2c 47 07 3e 31 46 4b be
       0.083114825 -0.05447462 0.13210744 -0.19850995
0002a0 ea ca 9e 3d 6a 3c 74 3d b1 49 83 3d cf 01 3c 3e
       0.077535465 0.059627928 0.0641054 0.18360065
0002b0 30 67 1e be 66 57 3e bd 60 6e 78 3e 6d 05 11 3e
       -0.1546905 -0.04647007 0.24260855 0.14162226
0002c0 e4 df ff bd ce a3 5a 3d 2b 4f 32 bd 71 8a 38 be
       -0.124938756 0.053378873 -0.04353253 -0.18021561
0002d0 b9 1c 33 be 60 4d 80 3e 07 56 a1 3e 46 57 b9 3d
       -0.17491426 0.25059032 0.31510946 0.09049849
0002e0 d6 1d 88 3e d4 41 4d 3e ab e0 b9 3d b5 22 4f 3d
       0.26585263 0.20044643 0.09076055 0.05057021
0002f0 e1 8a f4 bc b3 bc 53 bd ba e6 bb 3e f6 22 14 3a
       -0.029851379 -0.05169363 0.36699468 0.00056509615
000300 cc 2c 0b 3e b3 32 71 3d 92 42 c1 bd b8 e3 20 be
       0.13591307 0.05888624 -0.094365254 -0.15711868
000310 05 f4 27 bd 09 95 71 be 35 88 45 3e fb 4a 15 be
       -0.0410042 -0.23592009 0.1929024 -0.14579384
000320 b8 2b 6a be b6 e9 b0 3e 24 10 75 3d 7c ca 56 3e
       -0.2286824 0.34553307 0.059829846 0.20975679
000330 76 d7 9e be f8 2e 09 3e ea 8b fe 3d cc a4 5c 3e
       -0.3102376 0.13396823 0.1242903 0.2154724
000340 e5 1f 41 be 66 cb 06 3e 2e d3 08 3e 02 50 ce 3d
       -0.18859823 0.13163528 0.13361809 0.10073854
000350 50 67 3b bd 8d fb cf bd 42 6d 47 be 57 6f 0a be
       -0.045752823 -0.101554014 -0.19475272 -0.13519035
000360 27 13 6e 3e a4 fd 9a 3c 96 9d c0 bd 86 34 10 3e
       0.23249494 0.018919773 -0.09405057 0.14082536
000370 51 fb 3c 3c 29 2b a4 be 54 e4 0b 3f 98 bd c4 3b
       0.011534528 -0.3206418 0.54645276 0.0060040466
000380 c1 97 0b be 14 ca 90 3e 4e 37 ae 3d 9c 03 c6 bd
       -0.13632108 0.28279173 0.08506642 -0.09668657
000390 05 5c 2b bd 75 ab 16 3e 4b c7 3b 3e 66 f2 ce 3d
       -0.041835804 0.14713843 0.18337743 0.101048276
0003a0 22 93 96 be 57 bc d1 3d ad 40 11 3f 52 33 23 bd
       -0.29409128 0.10241001 0.5673931 -0.039843865
0003b0 12 47 b3 bd 7a 87 ca be e5 c2 11 be be 31 78 be
       -0.0875379 -0.39556485 -0.14234503 -0.24237725
0003c0 e8 33 57 be d3 8f b0 3d 8e c0 16 be 75 95 0f 3e
       -0.21015894 0.08621182 -0.14721891 0.14021857
0003d0 e6 4b a9 be ad 9d 55 3e 99 75 58 3e 43 e9 65 be
       -0.33065718 0.2086093 0.2113861 -0.22452264
0003e0 0c 7a 64 3d 50 5a 15 be 72 6b 7a be 04 7e b0 3d
       0.055780455 -0.14585233 -0.2445505 0.086177856
0003f0 fd 6f a0 bd e0 af 37 be 9b 5c 7f 3e 95 95 90 be
       -0.0783386 -0.17938185 0.2493767 -0.28239122

bias_ih_l0 f4 [128]
000000 72 36 ce bc 46 4c 4d 3e b8 7b 8f be 78 dd 4f 3c
       -0.025172446 0.20048627 -0.28024077 0.01268708
000010 0e 7d 09 3e 74 7b df 3c ca 14 5f 3e a5 0b cc 3d
       0.13426611 0.027280547 0.21785274 0.099631585
000020 1e 55 43 bb 6c 07 f6 bd 1b 04 d8 bc 03 57 14 3d
       -0.0029805372 -0.12013134 -0.026369145 0.036215793
000030 c5 e8 21 be 3d db ea 3d a7 48 6a 3d bb 99 02 3e
       -0.15811451 0.11467598 0.057198193 0.12753956
000040 73 9b c7 bc d8 fb 04 3e 70 1f 1a 3d d5 6b 9a bd
       -0.024366116 0.12986696 0.037627637 -0.075400986
000050 9f 2b 36 3d ca 3b 90 3d d2 6a 68 3d 2a 2b bc 3c
       0.044475194 0.07042654 0.056742497 0.022969801
000060 4e 2a 43 3c 2b aa f4 3d bb 5d 06 3e 93 d9 98 bd
       0.011911942 0.119465195 0.13121693 -0.07463374
000070 87 86 fb 3d 65 f7 62 bd 9a e1 f9 3e 9d 60 44 bd
       0.122815184 -0.055411715 0.48804933 -0.0479437
000080 a8 08 26 bc 02 88 c1 bd 28 26 80 3d fa d1 03 3e
       -0.0101339 -0.094497696 0.06257278 0.12873068
000090 fc 06 ed bc 4e 0e 33 3e cf 16 95 3e ef 19 44 be
       -0.028933994 0.17485926 0.29118964 -0.19150518
0000a0 05 55 91 3d 60 ed 13 3f 84 bc b3 bc 42 be 0d 3e
       0.07096294 0.5778408 -0.021940477 0.13842109
0000b0 b3 1b 93 3d 20 31 63 3e fe 06 9f 3c e3 2e d9 3d
       0.071830176 0.22186708 0.019412514 0.10604646
0000c0 3c 1d 8f 3e 8d 50 fb bd f0 5f a1 3e 57 a3 29 3e
       0.27951992 -0.12271223 0.31518507 0.16566215
0000d0 3d 2c 46 3d b1 4b 85 3e 54 74 4a 3d df d3 4b be
       0.048382033 0.2603431 0.049427345 -0.19905041
0000e0 56 70 4b 3e 1f de 2e 3e 49 28 fa 3c 42 a1 a2 bb
       0.19867072 0.1707692 0.030536788 -0.004963071
0000f0 0e e2 54 bd 27 20 44 3e e1 41 84 bd 34 36 2a 3e
       -0.051973395 0.1915289 -0.06457878 0.1662224
000100 63 1c 6a 3d 39 dc 84 bd 8b 14 d3 3c 42 ac 23 3e
       0.057155978 -0.06487317 0.025766632 0.1598368
000110 ad e7 91 bd 52 b7 b7 3d 6e 89 92 3d 0b 71 08 3d
       -0.07124267 0.089705124 0.07155119 0.03331093
000120 d9 6e 1f be 8c bd 47 be 79 b4 aa bb 27 94 43 3d
       -0.15569629 -0.195059 -0.0052095023 0.04774871
000130 4a 74 e2 bc 06 1e a1 bc af a5 37 ba c1 a7 46 3e
       -0.027643342 -0.019667637 -0.0007005585 0.1939993
000140 36 33 99 bd 72 ff 0c 3d c8 f7 9c bd 5c 89 e6 3d
       -0.07480471 0.0344233 -0.07664448 0.11256668
000150 b6 c3 e3 bb 1e ae 44 3e 0d 1b 8d bd c7 3a 17 be
       -0.006950821 0.19207045 -0.06889925 -0.14768516
000160 4b 52 93 3e 6d 42 35 3e a1 54 21 be 7f 31 53 bd
       0.28773722 0.1770112 -0.1575494 -0.051560875
000170 42 d9 14 3e d2 9a 7f be 32 49 aa 3e a7 dd d5 bd
       0.14536002 -0.24961403 0.3325897 -0.104426675
000180 f0 8a ab 3d f0 25 99 bd 18 57 46 be 6d e9 87 3c
       0.083761096 -0.07477939 -0.19369161 0.016590798
000190 ce 8e 40 3e 54 22 f9 bd 19 91 96 bc 0f b9 ad ba
       0.18804476 -0.12164751 -0.018379735 -0.0013254004
0001a0 f1 b4 1d 3e a2 e1 5c 3e 34 8f cb 3d ea 42 1b 3d
       0.15401055 0.21570447 0.09939423 0.03790561
0001b0 91 ee 1c 3e 90 ec e5 bd f5 75 8a bd 3a 5b 5e 3d
       0.15325381 -0.11226761 -0.0676078 0.05428622
0001c0 62 ab a1 3d a6 a7 c4 bc 16 81 04 3f 5e ae 32 3e
       0.07894017 -0.024005722 0.5175947 0.17449328
0001d0 b9 9f c7 3e bc 50 2d 3e 2c c1 14 3e 82 73 a3 bd
       0.38989046 0.16925329 0.14526814 -0.07981016
0001e0 0d 60 6c 3e 23 62 52 3a 28 39 57 bc 86 2c f1 3d
       0.23083515 0.0008025488 -0.013136186 0.1177607
0001f0 ac 3d 0f 3e aa 66 4d 3e dd a1 46 3f 62 11 0d 3d
       0.1398837 0.20058694 0.77590734 0.034440406

bias_hh_l0 f4 [128]
000000 ca 6c 28 3e 2c 60 e3 bc ba 41 84 3b 35 8a 45 3d
       0.1644775 -0.02775582 0.0040361555 0.048227508
000010 55 c3 54 3d e5 ec 15 3e 68 9c 9d 3e 3e 5e 5e bd
       0.051944096 0.1464115 0.3078339 -0.054289095
000020 0f 8c ae 3d c2 bc b8 bd b6 b6 e0 3d c9 3e 7f 3e
       0.08522808 -0.09020378 0.10972349 0.24926294
000030 bb ec 82 3d 4a ed 63 3c 91 bc 02 be 42 19 c3 3d
       0.06392809 0.013911555 -0.12767245 0.09526302
000040 c7 43 27 be f6 80 05 bd 81 c6 95 3d 71 03 35 3c
       -0.16334449 -0.03259369 0.07313252 0.011048184
000050 f5 23 e3 bc cf 46 93 3c 95 29 6a 3e 3c 56 74 bc
       -0.027727107 0.0179781 0.22867425 -0.014913138
000060 f8 00 80 3d 03 1c 0c bc 00 2f d2 3d f7 62 4c be
       0.06250185 -0.0085516 0.10262871 -0.19959627
000070 56 4d 66 3d 21 f1 d3 38 79 36 20 3f 6a 6c 32 bc
       0.056226097 0.00010106178 0.6258312 -0.010890106
000080 f2 f0 0b be 5b ea 6b bd 17 44 2e 3d 8f e3 89 bd
       -0.13666132 -0.057596546 0.042545404 -0.067328565
000090 cb 11 22 3e 34 23 b8 3e e1 ad 0b 3f 61 c2 cf bd
       0.158271 0.35964358 0.54562193 -0.10144497
0000a0 79 95 ac bd 91 82 15 3f 98 da 9b 3d 1e 78 a7 3e
       -0.08426947 0.58402354 0.07610053 0.3270883
0000b0 16 cd aa bd 31 7d c5 bd 60 e6 c5 3d f0 35 16 3c
       -0.08339898 -0.09643019 0.09663081 0.009168133
0000c0 d3 b8 e2 bc 67 85 88 be ef da d5 3e 06 04 85 bb
       -0.027676022 -0.26664278 0.41768596 -0.0040593175
0000d0 b8 c0 7c 3d e3 5d 39 3e 3f 92 d3 bd cc 10 b2 be
       0.06170723 0.18102221 -0.103306286 -0.3477844
0000e0 c7 6c 19 3e 81 e7 d4 3e 5b 16 8d 3e a6 45 fd bb
       0.14982902 0.41582873 0.27556118 -0.00772925
0000f0 75 43 26 be 59 c4 5d 3e cb ad 93 3d 60 4e b4 3d
       -0.1623667 0.21656932 0.07210883 0.08804011
000100 4f 5c ea bd 05 e4 0e 3e 06 bc 2f be 05 ba e0 bd
       -0.11443388 0.1395417 -0.17161569 -0.109729804
000110 fc fd 27 be 68 c2 f6 3c d4 1d 28 3e f2 14 4d be
       -0.16405481 0.030121997 0.16417629 -0.20027521
000120 f0 5b a1 bd b1 f1 19 bc 4d 0f 3d 3e 9c 2f 16 3e
       -0.07878864 -0.009396003 0.18462868 0.14666599
000130 c0 3e 8f bd 51 a8 91 bd d9 14 c6 bc b4 a8 62 3e
       -0.069943905 -0.07112182 -0.024179863 0.22134668
000140 69 f5 1f 3d 30 c4 36 3e 6b fa 9b 3d 39 fe 79 bd
       0.0390524 0.17848277 0.07616123 -0.06103346
000150 a6 7e 04 be 3d 91 e4 3d 7e d7 21 3c d5 57 56 3d
       -0.12938938 0.111605145 0.0098780375 0.052329857
000160 46 7d 05 3e 4f 3b 59 bb 8e 00 46 be 87 e9 22 3c
       0.1303607 -0.0033146923 -0.19336149 0.009943373
000170 23 1d 26 3d 14 f5 a3 bd 1c 18 c3 3e ac 6f bf 3d
       0.04055513 -0.08005729 0.38104331 0.093474716
000180 4c f0 58 3e 77 92 f0 3d f3 2b d2 3d 07 37 7b bc
       0.21185416 0.11746686 0.10262289 -0.015332944
000190 a3 29 0c be b2 ac aa 3d 30 6c a5 3d 4b c4 3b 3e
       -0.13687758 0.0833372 0.08077276 0.18336599
0001a0 e7 02 79 3e ed 5d 17 bc bb d6 99 3d 96 3d 8e 3d
       0.24317513 -0.009238702 0.0751166 0.0694534
0001b0 af 76 8a 3d c9 6d cb bd 90 1b 95 3d 14 da f3 bd
       0.06760918 -0.09933049 0.07280648 -0.119068295
0001c0 3d d2 b3 3d 1c 55 95 be f8 b6 3d 3e 5e 8d 92 bd
       0.08780334 -0.29166496 0.18526828 -0.0715587
0001d0 65 88 b4 3e cd 29 87 3d 6e 25 81 3e f2 25 80 bd
       0.3526031 0.0659977 0.2522387 -0.062572375
0001e0 88 fb a9 3c 15 7f e3 3d 01 cc 48 3c 58 60 92 bc
       0.020749822 0.11108223 0.01225567 -0.017868206
0001f0 56 7d 48 3d b1 a1 94 bd 26 c4 1d 3f 85 95 90 bd
       0.048947655 -0.07257403 0.61627424 -0.070597686
